models/gesture_classifier/20230719_1518193368_model.pt (torch, 14091 bytes, 4 tensors)

fc1.weight f4 [64, 42]
0.3419004 0.6945605 0.18338972 1.2158276 0.16860524 1.0200366 0.033361282 0.20233023
0.43038982 -0.11279287 0.006366245 -0.15377499 -0.24250117 -0.7080897 0.07535041 -0.39809078
0.15458244 0.22946033 0.30164218 -0.9126599 -0.073041014 -1.0065157 0.35003272 -0.61723876
0.5455771 0.06550977 0.24610451 -0.7974876 -0.2656209 -1.0654963 0.13349256 -0.82417595
0.6394808 -0.08115145 0.24689469 0.077627674 -0.072623275 -0.38447908 0.3630247 -0.29663277
0.65709156 0.09189606 -0.13519321 -0.64593685 0.1699448 -0.6055753 0.38714463 -0.18084447
0.7951574 0.74156517 1.3510671 1.3292739 -0.24108547 -0.4038616 -0.045585964 -0.16961558
0.075420834 -0.021019999 0.6155616 -0.16673248 -0.37069827 -0.28083995 -0.08160131 0.18896647
0.11831195 0.074321434 0.54744744 -0.03844693 -0.2674504 -0.2757832 -0.35159302 0.21996595
0.14414407 0.29770896 0.38089412 0.17085278 -0.5031721 -0.26550195 -0.1732753 -0.09146735
-0.16388771 -0.1048899 0.2561704 0.04838318 0.09489637 -0.7308234 0.039327644 -0.5716022
-0.022774221 -0.4447902 -0.052545883 -0.3340844 -0.00528459 -0.3376018 -0.16806513 -0.32242265
-0.23997954 -0.50811267 -0.22541623 -0.19132677 -0.15493557 -0.17954494 -0.011014654 -0.5466984
-0.1912972 -0.2869786 -0.17814718 -0.49683344 0.06679869 -0.39613062 0.11712986 -0.6421879
-0.120187305 -0.53112566 -0.07944537 -0.43175146 -0.028983103 -0.44542128 -0.018088654 -0.86993426
0.19529904 -0.6842462 0.08003311 -0.57761586 -0.07305694 -0.63086534 -0.060677838 -0.092013806
0.24794206 -0.28905097 0.46833378 -0.27903533 0.8975876 0.50567687 1.1850808 1.408333
0.077934645 -0.038909256 -0.08652935 -0.46059486 0.3015285 -0.48129436 0.58077806 -0.4595296
-0.15124664 0.27056837 -0.16466802 0.14848138 0.11534585 -0.08970053 0.46718496 -0.3875097
-0.38394377 0.13826682 -0.2528854 0.115408994 0.02659955 0.024642887 0.09476371 -0.19027606
-0.4970395 -0.13744555 -0.49764496 -0.13038118 -0.4405959 -0.19824317 -0.07066978 -0.13309388
-1.0833908 -0.72724974 -1.239497 0.055387788 -0.84890807 0.21534024 -0.046725143 0.11989536
0.90302455 0.1086627 -0.6377439 -0.30269694 -0.5961505 0.17780638 -0.0057020774 0.16922298
0.3850623 0.16860045 -0.29112026 -0.68173915 -0.28743497 0.10181581 0.22742496 0.29675105
0.87582195 0.4576152 -0.1824619 -0.43788996 -0.21721926 0.05293119 0.2218481 0.27795124
0.8667535 0.42294466 -0.19029838 0.17423816 -0.21098642 0.35650486 0.13887194 0.43539172
0.66491085 0.5387647 0.22761108 0.9880814 0.25925392 0.35540614 0.09228869 0.43504798
-0.11334423 0.68077326 0.033539377 1.3980508 0.019011518 0.25366366 0.21361917 -0.7892706
-0.04835861 -0.64970046 0.039917264 -0.35754424 -0.04178751 0.5259718 0.17443162 -0.5066754
-0.053736992 -0.40836313 0.29157618 -0.2072804 -0.13752395 0.37270287 0.042198513 -0.3755887
0.12929918 -0.4673822 0.2061241 -0.2812299 -0.23824494 -0.1486841 0.16108882 -0.6136848
-0.07821513 -0.36258996 -0.0066232304 -0.2205163 -0.4898172 -0.048943397 -0.118085116 0.5827806
00000000: 920d af3e b8ce 313f 84ca 3b3e 3da0 9b3f
00000010: daa6 2c3e 8f90 823f d7a5 083d a82f 4f3e
00000020: 0e5c dc3e f3ff e6bd ef9b d03b 3177 1dbe
00000030: 3a52 78be 5e45 35bf 5151 9a3d 8ed2 cbbe
00000040: dc4a 1e3e a6f7 6a3e d870 9a3e 14a4 69bf
00000050: 8796 95bd 82d5 80bf 7d37 b33e 5c03 1ebf
00000060: f1aa 0b3f fc29 863d d202 7c3e 2628 4cbf
00000070: 76ff 87be 2f62 88bf 46b2 083e 32fd 52bf
00000080: 04b5 233f bb32 a6bd f6d1 7c3e 42fb 9e3d
00000090: 83bb 94bd 71da c4be 60de b93e 40e0 97be
000000a0: 2737 283f 0034 bc3d 1770 0abe 1e5c 25bf
000000b0: 0206 2e3e fc06 1bbf d237 c63e 4b2f 39be
000000c0: 6f8f 4b3f 37d7 3d3f c4ef ac3f a625 aa3f
000000d0: 1cdf 76be f3c6 cebe 59b8 3abd b5af 2dbe
000000e0: 3d76 9a3d 2232 acbc 7295 1d3f ebbb 2abe
000000f0: 2acc bdbe 41ca 8fbe 961e a7bd 6d80 413e
00000100: 894d f23d d635 983d 8425 0c3f 877a 1dbd
00000110: 42ef 88be 7533 8dbe 0004 b4be c13e 613e
00000120: 819a 133e 4f6d 983e 8e04 c33e 08f4 2e3e
00000130: e3cf 00bf dfef 87be 156f 31be 3c53 bbbd
00000140: 2ed2 27be 84d0 d6bd c428 833e 712d 463d
00000150: 0759 c23d 3e17 3bbf 0616 213d 8654 12bf
00000160: 0191 babc 8bbb e3be 5a3a 57bd 1c0d abbe
00000170: 5b2a adbb 25da acbe 4419 2cbe 9514 a5be
00000180: 32bd 75be ac13 02bf 83d3 66be 2aeb 43be
00000190: 6ea7 1ebe a1da 37be cf76 34bc 6df4 0bbf
000001a0: 6ae3 43be dcee 92be 376c 36be f460 febe
000001b0: c0cd 883d a2d1 cabe c8e1 ef3d 6d66 24bf
000001c0: c324 f6bd daf7 07bf 41b4 a2bd 870e ddbe
000001d0: f96d edbc 420e e4be a82e 94bc 03b4 5ebf
000001e0: 79fc 473e c22a 2fbf 66e8 a33d a2de 13bf
000001f0: e19e 95bd 6480 21bf 5389 78bd bc71 bcbd
00000200: 86e4 7d3e 7dfe 93be 72c9 ef3e b8dd 8ebe
00000210: 4dc8 653f 0a74 013f bab0 973f 4144 b43f
00000220: 339c 9f3d 505f 1fbd 4d36 b1bd 17d3 ebbe
00000230: f261 9a3e 376c f6be dfad 143f 7747 ebbe
00000240: 66e0 1abe f087 8a3e bc9e 28be 810b 183e
00000250: 723a ec3d e9b4 b7bd de32 ef3e ac67 c6be
00000260: 4794 c4be d195 0d3e 327a 81be 8d5b ec3d
00000270: 4de7 d93c e1df c93c 7a13 c23d bad7 42be
00000280: f67b febe 87be 0cbe 52cb febe a582 05be
00000290: c995 e1be 4200 4bbe 51bb 90bd c349 08be
000002a0: 8dac 8abf 0a2d 3abf d6a7 9ebf 4ede 623d
000002b0: 0a52 59bf 2782 5c3e dd62 3fbd b38b f53d
000002c0: 9e2c 673f 8d8a de3d 2f43 23bf 18fb 9abe
000002d0: 529d 18bf e012 363e 7ed8 babb ca48 2d3e
000002e0: e326 c53e 99a5 2c3e b70d 95be 7586 2ebf
000002f0: ad2a 93be cf84 d03d 17e2 683e c1ef 973e
00000300: de35 603f 8a4c ea3e 4bd7 3abe 1d33 e0be
00000310: ba6e 5ebe 60ce 583d 262c 633e a04f 8e3e
00000320: 8fe3 5d3f 348c d83e 94dd 42be 7d6b 323e
00000330: d30c 58be ce87 b63e 7234 0e3e aaeb de3e
00000340: 9937 2a3f 7cec 093f e112 693e e7f2 7c3f
00000350: eebc 843e cbf7 b53e da01 bd3d 9cbe de3e
00000360: 0521 e8bd 2847 2e3f 9660 093d 54f3 b23f
00000370: 0bbe 9b3c 34e0 813e fcbe 5a3e a30d 4abf
00000380: ae13 46bd c552 26bf 4980 233d 0a10 b7be
00000390: 6129 2bbd 16a6 063f 349e 323e 7bb5 01bf
000003a0: 521b 5cbd f914 d1be 7949 953e 5041 54be
000003b0: 14d3 0cbe e9d2 be3e 59d8 2c3d 294d c0be
000003c0: 0167 043e b84c efbe 3212 533e 5efd 8fbe
000003d0: 7bf6 73be a540 18be 78f4 243e 721a 1dbf
000003e0: 412f a0bd 64a5 b9be af07 d9bb 06cf 61be
000003f0: 52c9 fabe df78 48bd 9cd6 f1bd 1c31 153f

fc1.bias f4 [64]
0.13479437 0.12436586 0.3270012 0.27830374 -0.8110894 0.4145773 -0.24397808 0.842429
0.54902136 -0.25140113 0.04470955 -0.7309352 0.3859258 -0.0071172556 0.06602566 0.68072605
0.6913676 0.5000434 0.45834386 0.5733593 -0.83929366 0.41790605 -0.27918518 -0.7685856
0.33635753 0.40293333 0.14726125 0.5537692 -0.029477911 -0.63931775 -0.3309068 0.6700746
0.15963842 -0.97559816 -0.4842897 -0.49465844 0.7473101 0.70925605 -0.5935015 0.4441276
0.39468586 -0.09845901 0.17943893 0.7974352 -0.3128891 0.264176 0.5200308 -0.67323273
0.28131583 0.2561703 -0.59117806 -0.27854627 -0.7131226 -0.03271073 -0.86586356 0.555676
-0.10822219 -0.3771843 -0.40636417 0.432544 -0.5947893 0.5759336 0.2806676 0.5382252
00000000: 8907 0a3e 87b3 fe3d b46c a73e d47d 8e3e
00000010: 8ea3 4fbf 7a43 d43e 64d5 79be 6da9 573f
00000020: aa8c 0c3f a6b7 80be 5c21 373d 921e 3bbf
00000030: 1198 c53e de37 e9bb 7638 873d 1044 2e3f
00000040: 78fd 303f d802 003f 0cac ea3e adc7 123f
00000050: f3db 56bf c8f7 d53e 5cf1 8ebe 07c2 44bf
00000060: 0e37 ac3e 474d ce3e a7cb 163e d1c3 0d3f
00000070: a97b f1bc 54aa 23bf 9e6c a9be 028a 2b3f
00000080: 4178 233e cdc0 79bf d2f4 f7be df43 fdbe
00000090: b74f 3f3f ce91 353f b7ef 17bf b164 e33e
000000a0: 4414 ca3e e1a4 c9bd d7be 373e b724 4c3f
000000b0: 0033 a0be 1442 873e bd20 053f fb58 2cbf
000000c0: a108 903e c128 833e 7257 17bf 9e9d 8ebe
000000d0: 348f 36bf b0fb 05bd 3ca9 5dbf c840 0e3f
000000e0: 98a3 ddbd 4d1e c1be f70e d0be 6876 dd3e
000000f0: 1d44 18bf 6270 133f aab3 8f3e 20c9 093f

fc2.weight f4 [5, 64]
-1.8706838 -1.2263 0.32589066 -1.5946062 0.05223087 -2.4498806 0.037795626 -2.358643
-1.6110039 0.5590179 -1.0036086 0.32277572 -1.3140833 0.33887124 -0.2549348 -1.3366868
-1.2010994 0.45923278 -1.9461999 -0.6137934 0.43048725 0.38775158 -1.2265306 0.7086416
-0.4537826 0.4000849 0.11696036 0.031807236 -0.8605082 -1.1086217 -1.5841814 -1.6831708
-1.1196917 0.45304987 0.5557499 -0.74566954 0.4823744 -2.3471596 0.38842282 1.0645925
1.4530567 0.09171446 0.5197876 -0.72604 0.455392 0.20546797 -1.35139 0.59491855
0.28968742 0.3614352 0.51914823 0.30153087 0.7306881 -0.084097005 0.6909772 -1.767773
-0.28662395 -0.612077 -0.8327356 -0.37652317 -0.54867244 -1.5714607 -0.7634017 0.53927344
-1.2209945 0.3767578 -0.47862995 0.44214764 -0.8158522 0.28413856 -0.6715092 0.7834644
0.40696245 -0.28603384 -0.5768453 -0.17772986 0.39554945 -0.7784075 -1.9548291 0.47723183
0.07221655 -0.44655624 0.73935664 1.4940834 -0.09462942 1.1513007 0.23991428 -1.7189481
0.21964559 -0.1940618 -1.2698873 1.1708055 -2.3915627 -1.4083103 0.58191913 0.42327407
0.5580662 -0.22010285 -0.9798303 0.10393824 -0.35444435 0.49306613 -0.7739682 2.0268362
1.4505858 -0.60155684 -0.19698697 0.119990535 -0.96076846 -0.6115774 0.4475461 -0.60395277
-0.3506224 -0.26617372 -0.8132258 -0.05311871 -1.9839756 -1.6667584 -0.76414984 0.35166278
0.5257817 0.3241037 -1.8632349 0.39072734 -1.7184415 0.3893239 0.3035129 0.7251354
0.92687714 -1.5959116 0.27456716 -1.0828451 -2.0502448 0.24489057 -1.2039465 0.04252163
-0.105451144 0.43745857 -0.37062824 0.40033796 -0.9315497 -0.6791482 -2.0952394 -1.1409554
0.48318452 0.44335634 -0.61231524 -0.7946209 0.18011768 -1.4045031 -0.5532759 -0.78168225
0.51408005 0.33921036 -0.9655189 -1.9758999 -0.1736215 -1.558603 -0.84473956 -0.02126605
-1.3399959 0.16958177 -0.40472272 -2.5448945 0.4321064 -0.55918276 0.12077103 -1.0665408
-2.0984159 -0.725131 -1.9599124 -0.14850271 -0.5236622 0.36436912 0.5781486 0.3899174
0.4387856 0.35852215 -0.8440177 -1.2723321 -0.66956705 -1.8900895 0.28557372 0.63612264
-1.0979809 -1.0484598 0.50011396 -1.373372 -1.1880387 0.5938369 0.42910013 -0.9587011
0.9903858 0.31672445 -0.2214234 0.43173084 -1.5003709 0.22923933 0.8068743 -0.31207618
0.03481932 -1.6974993 -0.38676864 -1.7251577 0.32051986 0.6809294 -1.2966866 0.21779507
0.03784016 -0.26248205 -0.57357365 -0.37245867 -1.713823 0.5621411 -0.6117367 -0.053907067
-1.74646 -0.31427974 0.92701465 0.5615164 0.74904794 -0.7553567 -1.2868488 -0.19601631
0.15633963 -1.1768184 0.48230302 0.1157889 -0.38548908 0.35108915 0.13496654 -2.1352363
-0.080487736 -0.8513249 0.61451703 0.2467396 0.5515686 -0.13228144 -1.7787086 -0.7518913
-0.3679242 -0.19953774 0.53299356 0.09678986 0.3473009 -1.2656268 -0.8954062 -1.5829126
-0.3385804 -1.2814734 -0.19197622 0.71490914 -0.84002733 -1.8488004 -1.2594857 0.4945367
00000000: 9172 efbf 66f7 9cbf 24db a63e 0e1c ccbf
00000010: 09f0 553d d8ca 1cc0 96cf 1a3d 02f4 16c0
00000020: 6035 cebf cc1b 0f3f 3f76 80bf dc42 a53e
00000030: e233 a8bf 8880 ad3e d086 82be 8e18 abbf
00000040: a0bd 99bf 8f20 eb3e 141d f9bf 9021 1dbf
00000050: d368 dc3e 6087 c63e f4fe 9cbf 8969 353f
00000060: 3156 e8be eed7 cc3e ea88 ef3d 4e48 023d
00000070: 444a 5cbf 51e7 8dbf 75c6 cabf 2472 d7bf
00000080: 0f52 8fbf 27f6 e73e a045 0e3f 33e4 3ebf
00000090: c7f9 f63e dd37 16c0 5bdf c63e 9144 883f
000000a0: c3fd b93f cad4 bb3d cd10 053f c2dd 39bf
000000b0: 2429 e93e 3266 523e 59fa acbf 954c 183f
000000c0: e951 943e 090e b93e e6e6 043f 4162 9a3e
000000d0: 600e 3b3f 0d3b acbd e2e3 303f 6346 e2bf
000000e0: 60c0 92be 14b1 1cbf 292e 55bf a5c7 c0be
000000f0: cc75 0cbf a025 c9bf 4b6e 43bf d30d 0a3f
00000100: 8c49 9cbf 66e6 c03e fc0e f5be 2d61 e23e
00000110: b1db 50bf 9c7a 913e 07e8 2bbf 1f91 483f
00000120: 625d d03e 0773 92be 22ac 13bf d1fe 35be
00000130: 7585 ca3e b745 47bf d737 fabf bb57 f43e
00000140: 45e6 933d 05a3 e4be 7a46 3d3f 203e bf3f
00000150: 12cd c1bd d25d 933f 17ac 753e 7e06 dcbf
00000160: c6ea 603e 23b8 46be ab8b a2bf f4dc 953f
00000170: 5d0f 19c0 8343 b4bf a7f8 143f 61b7 d83e
00000180: 6ddd 0e3f a462 61be 29d6 7abf 92dd d43d
00000190: bb79 b5be 2a73 fc3e c822 46bf afb7 0140
000001a0: ccac b93f a1ff 19bf f4b6 49be 99bd f53d
000001b0: ecf4 75bf 5690 1cbf c324 e53e a69c 1abf
000001c0: c784 b3be ec47 88be 912f 50bf 0193 59bd
000001d0: eaf2 fdbf 5758 d5bf 539f 43bf 250d b43e
000001e0: a199 063f ecf0 a53e 7b7e eebf 6a0d c83e
000001f0: e4f5 dbbf 7655 c73e 0b66 9b3e 79a2 393f
00000200: d247 6d3f d546 ccbf 1194 8c3e ab9a 8abf
00000210: 3637 03c0 98c4 7a3e eb1a 9abf 292b 2e3d
00000220: c5f6 d7bd 92fa df3e fcc2 bdbe 19f9 cc3e
00000230: 0b7a 6ebf a8dc 2dbf 6718 06c0 d40a 92bf
00000240: f663 f73e 9aff e23e b1c0 1cbf 466c 4bbf
00000250: c570 383e c2c6 b3bf 7da3 0dbf 541c 48bf
00000260: c09a 033f fbac ad3e 3f2c 77bf 4aea fcbf
00000270: d6c9 31be 4e80 c7bf da40 58bf 2436 aebc
00000280: fc84 abbf d8a6 2d3e d137 cfbe 8ddf 22c0
00000290: 0d3d dd3e 9a26 0fbf cd56 f73d 6984 88bf
000002a0: 724c 06c0 2fa2 39bf 69de fabf 1811 18be
000002b0: ba0e 06bf 978e ba3e 8c01 143f 41a3 c73e
000002c0: 82a8 e03e 3790 b73e 8b11 58bf c7db a2bf
000002d0: bf68 2bbf 74ee f1bf b836 923e efd8 223f
000002e0: a38a 8cbf ee33 86bf 7807 003f a7ca afbf
000002f0: a711 98bf b205 183f 03b3 db3e 6f6d 75bf
00000300: ec89 7d3f b529 a23e d1bc 62be d30b dd3e
00000310: 270c c0bf b7bd 6a3e 508f 4e3f 73c8 9fbe
00000320: b49e 0e3d a847 d9bf 8a06 c6be f8d1 dcbf
00000330: 2e1b a43e 6451 2e3f d4f9 a5bf ac05 5f3e
00000340: 49fe 1a3d 0c64 86be b9d5 12bf e7b2 bebe
00000350: 8d5e dbbf 7be8 0f3f c79a 1cbf a8cd 5cbd
00000360: 008c dfbf 46e9 a0be d550 6d3f 8abf 0f3f
00000370: 9bc1 3f3f 0f5f 41bf 76b7 a4bf 80b8 48be
00000380: 7f17 203e fca1 96bf 6cf0 f63e bb22 ed3d
00000390: d35e c5be f5c1 b33e ab34 0a3e b6a7 08c0
000003a0: c1d6 a4bd 6ef0 59bf fd50 1d3f 4ea9 7c3e
000003b0: 9a33 0d3f c974 07be b9ac e3bf f37b 40bf
000003c0: 9060 bcbe 9f53 4cbe 4472 083f c339 c63d
000003d0: 6cd1 b13e 0f00 a2bf 5739 65bf e19c cabf
000003e0: 695a adbe 5207 a4bf 6a95 44be 4904 373f
000003f0: 080c 57bf 7ea5 ecbf d436 a1bf ea33 fd3e

fc2.bias f4 [5]
-0.05697718 0.59107184 -0.18637465 0.23103829 -0.6425321
00000000: e760 69bd 7c50 173f ffd8 3ebe 4d95 6c3e
00000010: fc7c 24bf
